YOLO(
  (model): DetectionModel(
    (model): Sequential(
      (0): Conv(
        (conv): Conv2d(3, 96, kernel_size=(3, 3), stride=(2, 2), padding=(1, 1), bias=False)
        (bn): BatchNorm2d(96, eps=0.001, momentum=0.03, affine=True, track_running_stats=True)
        (act): SiLU(inplace=True)
      )
      (1): Conv(
        (conv): Conv2d(96, 192, kernel_size=(3, 3), stride=(2, 2), padding=(1, 1), bias=False)
        (bn): BatchNorm2d(192, eps=0.001, momentum=0.03, affine=True, track_running_stats=True)
        (act): SiLU(inplace=True)
      )
      (2): Sequential(
        (0): TransMoVE(
          (attn): DualAxisAggAttn(
            (main_conv): Conv(
              (conv): Conv2d(192, 96, kernel_size=(1, 1), stride=(1, 1), bias=False)
              (bn): BatchNorm2d(96, eps=0.001, momentum=0.03, affine=True, track_running_stats=True)
              (act): SiLU(inplace=True)
            )
            (short_conv): Conv(
              (conv): Conv2d(192, 96, kernel_size=(1, 1), stride=(1, 1), bias=False)
              (bn): BatchNorm2d(96, eps=0.001, momentum=0.03, affine=True, track_running_stats=True)
              (act): SiLU(inplace=True)
            )
            (qkv): ModuleDict(
              (W): Conv2d(96, 193, kernel_size=(1, 1), stride=(1, 1))
              (H): Conv2d(96, 193, kernel_size=(1, 1), stride=(1, 1))
            )
            (conv_fusion): ModuleDict(
              (W): light_ConvBlock(
                (conv_block): Sequential(
                  (0): Conv(
                    (conv): Conv2d(96, 96, kernel_size=(1, 1), stride=(1, 1), bias=False)
                    (bn): BatchNorm2d(96, eps=0.001, momentum=0.03, affine=True, track_running_stats=True)
                    (act): SiLU(inplace=True)
                  )
                  (1): Conv(
                    (conv): Conv2d(96, 96, kernel_size=(3, 3), stride=(1, 1), padding=(1, 1), groups=96, bias=False)
                    (bn): BatchNorm2d(96, eps=0.001, momentum=0.03, affine=True, track_running_stats=True)
                    (act): SiLU(inplace=True)
                  )
                  (2): Conv(
                    (conv): Conv2d(96, 96, kernel_size=(1, 1), stride=(1, 1), bias=False)
                    (bn): BatchNorm2d(96, eps=0.001, momentum=0.03, affine=True, track_running_stats=True)
                    (act): SiLU(inplace=True)
                  )
                )
              )
              (H): light_ConvBlock(
                (conv_block): Sequential(
                  (0): Conv(
                    (conv): Conv2d(96, 96, kernel_size=(1, 1), stride=(1, 1), bias=False)
                    (bn): BatchNorm2d(96, eps=0.001, momentum=0.03, affine=True, track_running_stats=True)
                    (act): SiLU(inplace=True)
                  )
                  (1): Conv(
                    (conv): Conv2d(96, 96, kernel_size=(3, 3), stride=(1, 1), padding=(1, 1), groups=96, bias=False)
                    (bn): BatchNorm2d(96, eps=0.001, momentum=0.03, affine=True, track_running_stats=True)
                    (act): SiLU(inplace=True)
                  )
                  (2): Conv(
                    (conv): Conv2d(96, 96, kernel_size=(1, 1), stride=(1, 1), bias=False)
                    (bn): BatchNorm2d(96, eps=0.001, momentum=0.03, affine=True, track_running_stats=True)
                    (act): SiLU(inplace=True)
                  )
                )
              )
            )
            (out_project): Conv(
              (conv): Conv2d(192, 192, kernel_size=(1, 1), stride=(1, 1), bias=False)
              (bn): BatchNorm2d(192, eps=0.001, momentum=0.03, affine=True, track_running_stats=True)
              (act): SiLU(inplace=True)
            )
          )
          (norm1): BatchNorm2d(192, eps=0.001, momentum=0.03, affine=True, track_running_stats=True)
          (local_extractor): MG_ELAN(
            (main_conv): Conv(
              (conv): Conv2d(192, 96, kernel_size=(1, 1), stride=(1, 1), bias=False)
              (bn): BatchNorm2d(96, eps=0.001, momentum=0.03, affine=True, track_running_stats=True)
              (act): SiLU(inplace=True)
            )
            (short_conv): Conv(
              (conv): Conv2d(192, 96, kernel_size=(1, 1), stride=(1, 1), bias=False)
              (bn): BatchNorm2d(96, eps=0.001, momentum=0.03, affine=True, track_running_stats=True)
              (act): SiLU(inplace=True)
            )
            (blocks): ModuleList(
              (0-1): 2 x MoVE_GhostModule(
                (primary_conv): Conv(
                  (conv): Conv2d(96, 48, kernel_size=(3, 3), stride=(1, 1), padding=(1, 1), bias=False)
                  (bn): BatchNorm2d(48, eps=0.001, momentum=0.03, affine=True, track_running_stats=True)
                  (act): SiLU(inplace=True)
                )
                (cheap_operation): MoVE(
                  (experts): Conv(
                    (conv): Conv2d(48, 768, kernel_size=(3, 3), stride=(1, 1), padding=(1, 1), groups=48, bias=False)
                    (bn): BatchNorm2d(768, eps=0.001, momentum=0.03, affine=True, track_running_stats=True)
                    (act): SiLU(inplace=True)
                  )
                  (fusion): Conv(
                    (conv): Conv2d(768, 48, kernel_size=(1, 1), stride=(1, 1), groups=16, bias=False)
                    (bn): BatchNorm2d(48, eps=0.001, momentum=0.03, affine=True, track_running_stats=True)
                    (act): SiLU(inplace=True)
                  )
                )
                (out_project): Conv(
                  (conv): Conv2d(96, 96, kernel_size=(1, 1), stride=(1, 1), bias=False)
                  (bn): BatchNorm2d(96, eps=0.001, momentum=0.03, affine=True, track_running_stats=True)
                  (act): SiLU(inplace=True)
                )
              )
            )
            (out_project): Conv(
              (conv): Conv2d(384, 192, kernel_size=(1, 1), stride=(1, 1), bias=False)
              (bn): BatchNorm2d(192, eps=0.001, momentum=0.03, affine=True, track_running_stats=True)
              (act): SiLU(inplace=True)
            )
          )
          (norm2): BatchNorm2d(192, eps=0.001, momentum=0.03, affine=True, track_running_stats=True)
          (out_project): Identity()
        )
        (1): TransMoVE(
          (attn): DualAxisAggAttn(
            (main_conv): Conv(
              (conv): Conv2d(192, 96, kernel_size=(1, 1), stride=(1, 1), bias=False)
              (bn): BatchNorm2d(96, eps=0.001, momentum=0.03, affine=True, track_running_stats=True)
              (act): SiLU(inplace=True)
            )
            (short_conv): Conv(
              (conv): Conv2d(192, 96, kernel_size=(1, 1), stride=(1, 1), bias=False)
              (bn): BatchNorm2d(96, eps=0.001, momentum=0.03, affine=True, track_running_stats=True)
              (act): SiLU(inplace=True)
            )
            (qkv): ModuleDict(
              (W): Conv2d(96, 193, kernel_size=(1, 1), stride=(1, 1))
              (H): Conv2d(96, 193, kernel_size=(1, 1), stride=(1, 1))
            )
            (conv_fusion): ModuleDict(
              (W): light_ConvBlock(
                (conv_block): Sequential(
                  (0): Conv(
                    (conv): Conv2d(96, 96, kernel_size=(1, 1), stride=(1, 1), bias=False)
                    (bn): BatchNorm2d(96, eps=0.001, momentum=0.03, affine=True, track_running_stats=True)
                    (act): SiLU(inplace=True)
                  )
                  (1): Conv(
                    (conv): Conv2d(96, 96, kernel_size=(3, 3), stride=(1, 1), padding=(1, 1), groups=96, bias=False)
                    (bn): BatchNorm2d(96, eps=0.001, momentum=0.03, affine=True, track_running_stats=True)
                    (act): SiLU(inplace=True)
                  )
                  (2): Conv(
                    (conv): Conv2d(96, 96, kernel_size=(1, 1), stride=(1, 1), bias=False)
                    (bn): BatchNorm2d(96, eps=0.001, momentum=0.03, affine=True, track_running_stats=True)
                    (act): SiLU(inplace=True)
                  )
                )
              )
              (H): light_ConvBlock(
                (conv_block): Sequential(
                  (0): Conv(
                    (conv): Conv2d(96, 96, kernel_size=(1, 1), stride=(1, 1), bias=False)
                    (bn): BatchNorm2d(96, eps=0.001, momentum=0.03, affine=True, track_running_stats=True)
                    (act): SiLU(inplace=True)
                  )
                  (1): Conv(
                    (conv): Conv2d(96, 96, kernel_size=(3, 3), stride=(1, 1), padding=(1, 1), groups=96, bias=False)
                    (bn): BatchNorm2d(96, eps=0.001, momentum=0.03, affine=True, track_running_stats=True)
                    (act): SiLU(inplace=True)
                  )
                  (2): Conv(
                    (conv): Conv2d(96, 96, kernel_size=(1, 1), stride=(1, 1), bias=False)
                    (bn): BatchNorm2d(96, eps=0.001, momentum=0.03, affine=True, track_running_stats=True)
                    (act): SiLU(inplace=True)
                  )
                )
              )
            )
            (out_project): Conv(
              (conv): Conv2d(192, 192, kernel_size=(1, 1), stride=(1, 1), bias=False)
              (bn): BatchNorm2d(192, eps=0.001, momentum=0.03, affine=True, track_running_stats=True)
              (act): SiLU(inplace=True)
            )
          )
          (norm1): BatchNorm2d(192, eps=0.001, momentum=0.03, affine=True, track_running_stats=True)
          (local_extractor): MG_ELAN(
            (main_conv): Conv(
              (conv): Conv2d(192, 96, kernel_size=(1, 1), stride=(1, 1), bias=False)
              (bn): BatchNorm2d(96, eps=0.001, momentum=0.03, affine=True, track_running_stats=True)
              (act): SiLU(inplace=True)
            )
            (short_conv): Conv(
              (conv): Conv2d(192, 96, kernel_size=(1, 1), stride=(1, 1), bias=False)
              (bn): BatchNorm2d(96, eps=0.001, momentum=0.03, affine=True, track_running_stats=True)
              (act): SiLU(inplace=True)
            )
            (blocks): ModuleList(
              (0-1): 2 x MoVE_GhostModule(
                (primary_conv): Conv(
                  (conv): Conv2d(96, 48, kernel_size=(3, 3), stride=(1, 1), padding=(1, 1), bias=False)
                  (bn): BatchNorm2d(48, eps=0.001, momentum=0.03, affine=True, track_running_stats=True)
                  (act): SiLU(inplace=True)
                )
                (cheap_operation): MoVE(
                  (experts): Conv(
                    (conv): Conv2d(48, 768, kernel_size=(3, 3), stride=(1, 1), padding=(1, 1), groups=48, bias=False)
                    (bn): BatchNorm2d(768, eps=0.001, momentum=0.03, affine=True, track_running_stats=True)
                    (act): SiLU(inplace=True)
                  )
                  (fusion): Conv(
                    (conv): Conv2d(768, 48, kernel_size=(1, 1), stride=(1, 1), groups=16, bias=False)
                    (bn): BatchNorm2d(48, eps=0.001, momentum=0.03, affine=True, track_running_stats=True)
                    (act): SiLU(inplace=True)
                  )
                )
                (out_project): Conv(
                  (conv): Conv2d(96, 96, kernel_size=(1, 1), stride=(1, 1), bias=False)
                  (bn): BatchNorm2d(96, eps=0.001, momentum=0.03, affine=True, track_running_stats=True)
                  (act): SiLU(inplace=True)
                )
              )
            )
            (out_project): Conv(
              (conv): Conv2d(384, 192, kernel_size=(1, 1), stride=(1, 1), bias=False)
              (bn): BatchNorm2d(192, eps=0.001, momentum=0.03, affine=True, track_running_stats=True)
              (act): SiLU(inplace=True)
            )
          )
          (norm2): BatchNorm2d(192, eps=0.001, momentum=0.03, affine=True, track_running_stats=True)
          (out_project): Identity()
        )
      )
      (3): Conv(
        (conv): Conv2d(192, 384, kernel_size=(3, 3), stride=(2, 2), padding=(1, 1), bias=False)
        (bn): BatchNorm2d(384, eps=0.001, momentum=0.03, affine=True, track_running_stats=True)
        (act): SiLU(inplace=True)
      )
      (4): Sequential(
        (0): TransMoVE(
          (attn): DualAxisAggAttn(
            (main_conv): Conv(
              (conv): Conv2d(384, 192, kernel_size=(1, 1), stride=(1, 1), bias=False)
              (bn): BatchNorm2d(192, eps=0.001, momentum=0.03, affine=True, track_running_stats=True)
              (act): SiLU(inplace=True)
            )
            (short_conv): Conv(
              (conv): Conv2d(384, 192, kernel_size=(1, 1), stride=(1, 1), bias=False)
              (bn): BatchNorm2d(192, eps=0.001, momentum=0.03, affine=True, track_running_stats=True)
              (act): SiLU(inplace=True)
            )
            (qkv): ModuleDict(
              (W): Conv2d(192, 385, kernel_size=(1, 1), stride=(1, 1))
              (H): Conv2d(192, 385, kernel_size=(1, 1), stride=(1, 1))
            )
            (conv_fusion): ModuleDict(
              (W): light_ConvBlock(
                (conv_block): Sequential(
                  (0): Conv(
                    (conv): Conv2d(192, 192, kernel_size=(1, 1), stride=(1, 1), bias=False)
                    (bn): BatchNorm2d(192, eps=0.001, momentum=0.03, affine=True, track_running_stats=True)
                    (act): SiLU(inplace=True)
                  )
                  (1): Conv(
                    (conv): Conv2d(192, 192, kernel_size=(3, 3), stride=(1, 1), padding=(1, 1), groups=192, bias=False)
                    (bn): BatchNorm2d(192, eps=0.001, momentum=0.03, affine=True, track_running_stats=True)
                    (act): SiLU(inplace=True)
                  )
                  (2): Conv(
                    (conv): Conv2d(192, 192, kernel_size=(1, 1), stride=(1, 1), bias=False)
                    (bn): BatchNorm2d(192, eps=0.001, momentum=0.03, affine=True, track_running_stats=True)
                    (act): SiLU(inplace=True)
                  )
                )
              )
              (H): light_ConvBlock(
                (conv_block): Sequential(
                  (0): Conv(
                    (conv): Conv2d(192, 192, kernel_size=(1, 1), stride=(1, 1), bias=False)
                    (bn): BatchNorm2d(192, eps=0.001, momentum=0.03, affine=True, track_running_stats=True)
                    (act): SiLU(inplace=True)
                  )
                  (1): Conv(
                    (conv): Conv2d(192, 192, kernel_size=(3, 3), stride=(1, 1), padding=(1, 1), groups=192, bias=False)
                    (bn): BatchNorm2d(192, eps=0.001, momentum=0.03, affine=True, track_running_stats=True)
                    (act): SiLU(inplace=True)
                  )
                  (2): Conv(
                    (conv): Conv2d(192, 192, kernel_size=(1, 1), stride=(1, 1), bias=False)
                    (bn): BatchNorm2d(192, eps=0.001, momentum=0.03, affine=True, track_running_stats=True)
                    (act): SiLU(inplace=True)
                  )
                )
              )
            )
            (out_project): Conv(
              (conv): Conv2d(384, 384, kernel_size=(1, 1), stride=(1, 1), bias=False)
              (bn): BatchNorm2d(384, eps=0.001, momentum=0.03, affine=True, track_running_stats=True)
              (act): SiLU(inplace=True)
            )
          )
          (norm1): BatchNorm2d(384, eps=0.001, momentum=0.03, affine=True, track_running_stats=True)
          (local_extractor): MG_ELAN(
            (main_conv): Conv(
              (conv): Conv2d(384, 192, kernel_size=(1, 1), stride=(1, 1), bias=False)
              (bn): BatchNorm2d(192, eps=0.001, momentum=0.03, affine=True, track_running_stats=True)
              (act): SiLU(inplace=True)
            )
            (short_conv): Conv(
              (conv): Conv2d(384, 192, kernel_size=(1, 1), stride=(1, 1), bias=False)
              (bn): BatchNorm2d(192, eps=0.001, momentum=0.03, affine=True, track_running_stats=True)
              (act): SiLU(inplace=True)
            )
            (blocks): ModuleList(
              (0-1): 2 x MoVE_GhostModule(
                (primary_conv): Conv(
                  (conv): Conv2d(192, 96, kernel_size=(3, 3), stride=(1, 1), padding=(1, 1), bias=False)
                  (bn): BatchNorm2d(96, eps=0.001, momentum=0.03, affine=True, track_running_stats=True)
                  (act): SiLU(inplace=True)
                )
                (cheap_operation): MoVE(
                  (experts): Conv(
                    (conv): Conv2d(96, 1536, kernel_size=(3, 3), stride=(1, 1), padding=(1, 1), groups=96, bias=False)
                    (bn): BatchNorm2d(1536, eps=0.001, momentum=0.03, affine=True, track_running_stats=True)
                    (act): SiLU(inplace=True)
                  )
                  (fusion): Conv(
                    (conv): Conv2d(1536, 96, kernel_size=(1, 1), stride=(1, 1), groups=16, bias=False)
                    (bn): BatchNorm2d(96, eps=0.001, momentum=0.03, affine=True, track_running_stats=True)
                    (act): SiLU(inplace=True)
                  )
                )
                (out_project): Conv(
                  (conv): Conv2d(192, 192, kernel_size=(1, 1), stride=(1, 1), bias=False)
                  (bn): BatchNorm2d(192, eps=0.001, momentum=0.03, affine=True, track_running_stats=True)
                  (act): SiLU(inplace=True)
                )
              )
            )
            (out_project): Conv(
              (conv): Conv2d(768, 384, kernel_size=(1, 1), stride=(1, 1), bias=False)
              (bn): BatchNorm2d(384, eps=0.001, momentum=0.03, affine=True, track_running_stats=True)
              (act): SiLU(inplace=True)
            )
          )
          (norm2): BatchNorm2d(384, eps=0.001, momentum=0.03, affine=True, track_running_stats=True)
          (out_project): Identity()
        )
        (1): TransMoVE(
          (attn): DualAxisAggAttn(
            (main_conv): Conv(
              (conv): Conv2d(384, 192, kernel_size=(1, 1), stride=(1, 1), bias=False)
              (bn): BatchNorm2d(192, eps=0.001, momentum=0.03, affine=True, track_running_stats=True)
              (act): SiLU(inplace=True)
            )
            (short_conv): Conv(
              (conv): Conv2d(384, 192, kernel_size=(1, 1), stride=(1, 1), bias=False)
              (bn): BatchNorm2d(192, eps=0.001, momentum=0.03, affine=True, track_running_stats=True)
              (act): SiLU(inplace=True)
            )
            (qkv): ModuleDict(
              (W): Conv2d(192, 385, kernel_size=(1, 1), stride=(1, 1))
              (H): Conv2d(192, 385, kernel_size=(1, 1), stride=(1, 1))
            )
            (conv_fusion): ModuleDict(
              (W): light_ConvBlock(
                (conv_block): Sequential(
                  (0): Conv(
                    (conv): Conv2d(192, 192, kernel_size=(1, 1), stride=(1, 1), bias=False)
                    (bn): BatchNorm2d(192, eps=0.001, momentum=0.03, affine=True, track_running_stats=True)
                    (act): SiLU(inplace=True)
                  )
                  (1): Conv(
                    (conv): Conv2d(192, 192, kernel_size=(3, 3), stride=(1, 1), padding=(1, 1), groups=192, bias=False)
                    (bn): BatchNorm2d(192, eps=0.001, momentum=0.03, affine=True, track_running_stats=True)
                    (act): SiLU(inplace=True)
                  )
                  (2): Conv(
                    (conv): Conv2d(192, 192, kernel_size=(1, 1), stride=(1, 1), bias=False)
                    (bn): BatchNorm2d(192, eps=0.001, momentum=0.03, affine=True, track_running_stats=True)
                    (act): SiLU(inplace=True)
                  )
                )
              )
              (H): light_ConvBlock(
                (conv_block): Sequential(
                  (0): Conv(
                    (conv): Conv2d(192, 192, kernel_size=(1, 1), stride=(1, 1), bias=False)
                    (bn): BatchNorm2d(192, eps=0.001, momentum=0.03, affine=True, track_running_stats=True)
                    (act): SiLU(inplace=True)
                  )
                  (1): Conv(
                    (conv): Conv2d(192, 192, kernel_size=(3, 3), stride=(1, 1), padding=(1, 1), groups=192, bias=False)
                    (bn): BatchNorm2d(192, eps=0.001, momentum=0.03, affine=True, track_running_stats=True)
                    (act): SiLU(inplace=True)
                  )
                  (2): Conv(
                    (conv): Conv2d(192, 192, kernel_size=(1, 1), stride=(1, 1), bias=False)
                    (bn): BatchNorm2d(192, eps=0.001, momentum=0.03, affine=True, track_running_stats=True)
                    (act): SiLU(inplace=True)
                  )
                )
              )
            )
            (out_project): Conv(
              (conv): Conv2d(384, 384, kernel_size=(1, 1), stride=(1, 1), bias=False)
              (bn): BatchNorm2d(384, eps=0.001, momentum=0.03, affine=True, track_running_stats=True)
              (act): SiLU(inplace=True)
            )
          )
          (norm1): BatchNorm2d(384, eps=0.001, momentum=0.03, affine=True, track_running_stats=True)
          (local_extractor): MG_ELAN(
            (main_conv): Conv(
              (conv): Conv2d(384, 192, kernel_size=(1, 1), stride=(1, 1), bias=False)
              (bn): BatchNorm2d(192, eps=0.001, momentum=0.03, affine=True, track_running_stats=True)
              (act): SiLU(inplace=True)
            )
            (short_conv): Conv(
              (conv): Conv2d(384, 192, kernel_size=(1, 1), stride=(1, 1), bias=False)
              (bn): BatchNorm2d(192, eps=0.001, momentum=0.03, affine=True, track_running_stats=True)
              (act): SiLU(inplace=True)
            )
            (blocks): ModuleList(
              (0-1): 2 x MoVE_GhostModule(
                (primary_conv): Conv(
                  (conv): Conv2d(192, 96, kernel_size=(3, 3), stride=(1, 1), padding=(1, 1), bias=False)
                  (bn): BatchNorm2d(96, eps=0.001, momentum=0.03, affine=True, track_running_stats=True)
                  (act): SiLU(inplace=True)
                )
                (cheap_operation): MoVE(
                  (experts): Conv(
                    (conv): Conv2d(96, 1536, kernel_size=(3, 3), stride=(1, 1), padding=(1, 1), groups=96, bias=False)
                    (bn): BatchNorm2d(1536, eps=0.001, momentum=0.03, affine=True, track_running_stats=True)
                    (act): SiLU(inplace=True)
                  )
                  (fusion): Conv(
                    (conv): Conv2d(1536, 96, kernel_size=(1, 1), stride=(1, 1), groups=16, bias=False)
                    (bn): BatchNorm2d(96, eps=0.001, momentum=0.03, affine=True, track_running_stats=True)
                    (act): SiLU(inplace=True)
                  )
                )
                (out_project): Conv(
                  (conv): Conv2d(192, 192, kernel_size=(1, 1), stride=(1, 1), bias=False)
                  (bn): BatchNorm2d(192, eps=0.001, momentum=0.03, affine=True, track_running_stats=True)
                  (act): SiLU(inplace=True)
                )
              )
            )
            (out_project): Conv(
              (conv): Conv2d(768, 384, kernel_size=(1, 1), stride=(1, 1), bias=False)
              (bn): BatchNorm2d(384, eps=0.001, momentum=0.03, affine=True, track_running_stats=True)
              (act): SiLU(inplace=True)
            )
          )
          (norm2): BatchNorm2d(384, eps=0.001, momentum=0.03, affine=True, track_running_stats=True)
          (out_project): Identity()
        )
      )
      (5): SCDown(
        (cv1): Conv(
          (conv): Conv2d(384, 768, kernel_size=(1, 1), stride=(1, 1), bias=False)
          (bn): BatchNorm2d(768, eps=0.001, momentum=0.03, affine=True, track_running_stats=True)
          (act): SiLU(inplace=True)
        )
        (cv2): Conv(
          (conv): Conv2d(768, 768, kernel_size=(3, 3), stride=(2, 2), padding=(1, 1), groups=768, bias=False)
          (bn): BatchNorm2d(768, eps=0.001, momentum=0.03, affine=True, track_running_stats=True)
          (act): Identity()
        )
      )
      (6): Sequential(
        (0): TransMoVE(
          (attn): DualAxisAggAttn(
            (main_conv): Conv(
              (conv): Conv2d(768, 384, kernel_size=(1, 1), stride=(1, 1), bias=False)
              (bn): BatchNorm2d(384, eps=0.001, momentum=0.03, affine=True, track_running_stats=True)
              (act): SiLU(inplace=True)
            )
            (short_conv): Conv(
              (conv): Conv2d(768, 384, kernel_size=(1, 1), stride=(1, 1), bias=False)
              (bn): BatchNorm2d(384, eps=0.001, momentum=0.03, affine=True, track_running_stats=True)
              (act): SiLU(inplace=True)
            )
            (qkv): ModuleDict(
              (W): Conv2d(384, 769, kernel_size=(1, 1), stride=(1, 1))
              (H): Conv2d(384, 769, kernel_size=(1, 1), stride=(1, 1))
            )
            (conv_fusion): ModuleDict(
              (W): light_ConvBlock(
                (conv_block): Sequential(
                  (0): Conv(
                    (conv): Conv2d(384, 384, kernel_size=(1, 1), stride=(1, 1), bias=False)
                    (bn): BatchNorm2d(384, eps=0.001, momentum=0.03, affine=True, track_running_stats=True)
                    (act): SiLU(inplace=True)
                  )
                  (1): Conv(
                    (conv): Conv2d(384, 384, kernel_size=(3, 3), stride=(1, 1), padding=(1, 1), groups=384, bias=False)
                    (bn): BatchNorm2d(384, eps=0.001, momentum=0.03, affine=True, track_running_stats=True)
                    (act): SiLU(inplace=True)
                  )
                  (2): Conv(
                    (conv): Conv2d(384, 384, kernel_size=(1, 1), stride=(1, 1), bias=False)
                    (bn): BatchNorm2d(384, eps=0.001, momentum=0.03, affine=True, track_running_stats=True)
                    (act): SiLU(inplace=True)
                  )
                )
              )
              (H): light_ConvBlock(
                (conv_block): Sequential(
                  (0): Conv(
                    (conv): Conv2d(384, 384, kernel_size=(1, 1), stride=(1, 1), bias=False)
                    (bn): BatchNorm2d(384, eps=0.001, momentum=0.03, affine=True, track_running_stats=True)
                    (act): SiLU(inplace=True)
                  )
                  (1): Conv(
                    (conv): Conv2d(384, 384, kernel_size=(3, 3), stride=(1, 1), padding=(1, 1), groups=384, bias=False)
                    (bn): BatchNorm2d(384, eps=0.001, momentum=0.03, affine=True, track_running_stats=True)
                    (act): SiLU(inplace=True)
                  )
                  (2): Conv(
                    (conv): Conv2d(384, 384, kernel_size=(1, 1), stride=(1, 1), bias=False)
                    (bn): BatchNorm2d(384, eps=0.001, momentum=0.03, affine=True, track_running_stats=True)
                    (act): SiLU(inplace=True)
                  )
                )
              )
            )
            (out_project): Conv(
              (conv): Conv2d(768, 768, kernel_size=(1, 1), stride=(1, 1), bias=False)
              (bn): BatchNorm2d(768, eps=0.001, momentum=0.03, affine=True, track_running_stats=True)
              (act): SiLU(inplace=True)
            )
          )
          (norm1): BatchNorm2d(768, eps=0.001, momentum=0.03, affine=True, track_running_stats=True)
          (local_extractor): MG_ELAN(
            (main_conv): Conv(
              (conv): Conv2d(768, 384, kernel_size=(1, 1), stride=(1, 1), bias=False)
              (bn): BatchNorm2d(384, eps=0.001, momentum=0.03, affine=True, track_running_stats=True)
              (act): SiLU(inplace=True)
            )
            (short_conv): Conv(
              (conv): Conv2d(768, 384, kernel_size=(1, 1), stride=(1, 1), bias=False)
              (bn): BatchNorm2d(384, eps=0.001, momentum=0.03, affine=True, track_running_stats=True)
              (act): SiLU(inplace=True)
            )
            (blocks): ModuleList(
              (0-1): 2 x MoVE_GhostModule(
                (primary_conv): Conv(
                  (conv): Conv2d(384, 192, kernel_size=(3, 3), stride=(1, 1), padding=(1, 1), bias=False)
                  (bn): BatchNorm2d(192, eps=0.001, momentum=0.03, affine=True, track_running_stats=True)
                  (act): SiLU(inplace=True)
                )
                (cheap_operation): MoVE(
                  (experts): Conv(
                    (conv): Conv2d(192, 3072, kernel_size=(3, 3), stride=(1, 1), padding=(1, 1), groups=192, bias=False)
                    (bn): BatchNorm2d(3072, eps=0.001, momentum=0.03, affine=True, track_running_stats=True)
                    (act): SiLU(inplace=True)
                  )
                  (fusion): Conv(
                    (conv): Conv2d(3072, 192, kernel_size=(1, 1), stride=(1, 1), groups=16, bias=False)
                    (bn): BatchNorm2d(192, eps=0.001, momentum=0.03, affine=True, track_running_stats=True)
                    (act): SiLU(inplace=True)
                  )
                )
                (out_project): Conv(
                  (conv): Conv2d(384, 384, kernel_size=(1, 1), stride=(1, 1), bias=False)
                  (bn): BatchNorm2d(384, eps=0.001, momentum=0.03, affine=True, track_running_stats=True)
                  (act): SiLU(inplace=True)
                )
              )
            )
            (out_project): Conv(
              (conv): Conv2d(1536, 768, kernel_size=(1, 1), stride=(1, 1), bias=False)
              (bn): BatchNorm2d(768, eps=0.001, momentum=0.03, affine=True, track_running_stats=True)
              (act): SiLU(inplace=True)
            )
          )
          (norm2): BatchNorm2d(768, eps=0.001, momentum=0.03, affine=True, track_running_stats=True)
          (out_project): Identity()
        )
        (1): TransMoVE(
          (attn): DualAxisAggAttn(
            (main_conv): Conv(
              (conv): Conv2d(768, 384, kernel_size=(1, 1), stride=(1, 1), bias=False)
              (bn): BatchNorm2d(384, eps=0.001, momentum=0.03, affine=True, track_running_stats=True)
              (act): SiLU(inplace=True)
            )
            (short_conv): Conv(
              (conv): Conv2d(768, 384, kernel_size=(1, 1), stride=(1, 1), bias=False)
              (bn): BatchNorm2d(384, eps=0.001, momentum=0.03, affine=True, track_running_stats=True)
              (act): SiLU(inplace=True)
            )
            (qkv): ModuleDict(
              (W): Conv2d(384, 769, kernel_size=(1, 1), stride=(1, 1))
              (H): Conv2d(384, 769, kernel_size=(1, 1), stride=(1, 1))
            )
            (conv_fusion): ModuleDict(
              (W): light_ConvBlock(
                (conv_block): Sequential(
                  (0): Conv(
                    (conv): Conv2d(384, 384, kernel_size=(1, 1), stride=(1, 1), bias=False)
                    (bn): BatchNorm2d(384, eps=0.001, momentum=0.03, affine=True, track_running_stats=True)
                    (act): SiLU(inplace=True)
                  )
                  (1): Conv(
                    (conv): Conv2d(384, 384, kernel_size=(3, 3), stride=(1, 1), padding=(1, 1), groups=384, bias=False)
                    (bn): BatchNorm2d(384, eps=0.001, momentum=0.03, affine=True, track_running_stats=True)
                    (act): SiLU(inplace=True)
                  )
                  (2): Conv(
                    (conv): Conv2d(384, 384, kernel_size=(1, 1), stride=(1, 1), bias=False)
                    (bn): BatchNorm2d(384, eps=0.001, momentum=0.03, affine=True, track_running_stats=True)
                    (act): SiLU(inplace=True)
                  )
                )
              )
              (H): light_ConvBlock(
                (conv_block): Sequential(
                  (0): Conv(
                    (conv): Conv2d(384, 384, kernel_size=(1, 1), stride=(1, 1), bias=False)
                    (bn): BatchNorm2d(384, eps=0.001, momentum=0.03, affine=True, track_running_stats=True)
                    (act): SiLU(inplace=True)
                  )
                  (1): Conv(
                    (conv): Conv2d(384, 384, kernel_size=(3, 3), stride=(1, 1), padding=(1, 1), groups=384, bias=False)
                    (bn): BatchNorm2d(384, eps=0.001, momentum=0.03, affine=True, track_running_stats=True)
                    (act): SiLU(inplace=True)
                  )
                  (2): Conv(
                    (conv): Conv2d(384, 384, kernel_size=(1, 1), stride=(1, 1), bias=False)
                    (bn): BatchNorm2d(384, eps=0.001, momentum=0.03, affine=True, track_running_stats=True)
                    (act): SiLU(inplace=True)
                  )
                )
              )
            )
            (out_project): Conv(
              (conv): Conv2d(768, 768, kernel_size=(1, 1), stride=(1, 1), bias=False)
              (bn): BatchNorm2d(768, eps=0.001, momentum=0.03, affine=True, track_running_stats=True)
              (act): SiLU(inplace=True)
            )
          )
          (norm1): BatchNorm2d(768, eps=0.001, momentum=0.03, affine=True, track_running_stats=True)
          (local_extractor): MG_ELAN(
            (main_conv): Conv(
              (conv): Conv2d(768, 384, kernel_size=(1, 1), stride=(1, 1), bias=False)
              (bn): BatchNorm2d(384, eps=0.001, momentum=0.03, affine=True, track_running_stats=True)
              (act): SiLU(inplace=True)
            )
            (short_conv): Conv(
              (conv): Conv2d(768, 384, kernel_size=(1, 1), stride=(1, 1), bias=False)
              (bn): BatchNorm2d(384, eps=0.001, momentum=0.03, affine=True, track_running_stats=True)
              (act): SiLU(inplace=True)
            )
            (blocks): ModuleList(
              (0-1): 2 x MoVE_GhostModule(
                (primary_conv): Conv(
                  (conv): Conv2d(384, 192, kernel_size=(3, 3), stride=(1, 1), padding=(1, 1), bias=False)
                  (bn): BatchNorm2d(192, eps=0.001, momentum=0.03, affine=True, track_running_stats=True)
                  (act): SiLU(inplace=True)
                )
                (cheap_operation): MoVE(
                  (experts): Conv(
                    (conv): Conv2d(192, 3072, kernel_size=(3, 3), stride=(1, 1), padding=(1, 1), groups=192, bias=False)
                    (bn): BatchNorm2d(3072, eps=0.001, momentum=0.03, affine=True, track_running_stats=True)
                    (act): SiLU(inplace=True)
                  )
                  (fusion): Conv(
                    (conv): Conv2d(3072, 192, kernel_size=(1, 1), stride=(1, 1), groups=16, bias=False)
                    (bn): BatchNorm2d(192, eps=0.001, momentum=0.03, affine=True, track_running_stats=True)
                    (act): SiLU(inplace=True)
                  )
                )
                (out_project): Conv(
                  (conv): Conv2d(384, 384, kernel_size=(1, 1), stride=(1, 1), bias=False)
                  (bn): BatchNorm2d(384, eps=0.001, momentum=0.03, affine=True, track_running_stats=True)
                  (act): SiLU(inplace=True)
                )
              )
            )
            (out_project): Conv(
              (conv): Conv2d(1536, 768, kernel_size=(1, 1), stride=(1, 1), bias=False)
              (bn): BatchNorm2d(768, eps=0.001, momentum=0.03, affine=True, track_running_stats=True)
              (act): SiLU(inplace=True)
            )
          )
          (norm2): BatchNorm2d(768, eps=0.001, momentum=0.03, affine=True, track_running_stats=True)
          (out_project): Identity()
        )
      )
      (7): SCDown(
        (cv1): Conv(
          (conv): Conv2d(768, 768, kernel_size=(1, 1), stride=(1, 1), bias=False)
          (bn): BatchNorm2d(768, eps=0.001, momentum=0.03, affine=True, track_running_stats=True)
          (act): SiLU(inplace=True)
        )
        (cv2): Conv(
          (conv): Conv2d(768, 768, kernel_size=(3, 3), stride=(2, 2), padding=(1, 1), groups=768, bias=False)
          (bn): BatchNorm2d(768, eps=0.001, momentum=0.03, affine=True, track_running_stats=True)
          (act): Identity()
        )
      )
      (8): Sequential(
        (0): TransMoVE(
          (attn): DualAxisAggAttn(
            (main_conv): Conv(
              (conv): Conv2d(768, 384, kernel_size=(1, 1), stride=(1, 1), bias=False)
              (bn): BatchNorm2d(384, eps=0.001, momentum=0.03, affine=True, track_running_stats=True)
              (act): SiLU(inplace=True)
            )
            (short_conv): Conv(
              (conv): Conv2d(768, 384, kernel_size=(1, 1), stride=(1, 1), bias=False)
              (bn): BatchNorm2d(384, eps=0.001, momentum=0.03, affine=True, track_running_stats=True)
              (act): SiLU(inplace=True)
            )
            (qkv): ModuleDict(
              (W): Conv2d(384, 769, kernel_size=(1, 1), stride=(1, 1))
              (H): Conv2d(384, 769, kernel_size=(1, 1), stride=(1, 1))
            )
            (conv_fusion): ModuleDict(
              (W): light_ConvBlock(
                (conv_block): Sequential(
                  (0): Conv(
                    (conv): Conv2d(384, 384, kernel_size=(1, 1), stride=(1, 1), bias=False)
                    (bn): BatchNorm2d(384, eps=0.001, momentum=0.03, affine=True, track_running_stats=True)
                    (act): SiLU(inplace=True)
                  )
                  (1): Conv(
                    (conv): Conv2d(384, 384, kernel_size=(3, 3), stride=(1, 1), padding=(1, 1), groups=384, bias=False)
                    (bn): BatchNorm2d(384, eps=0.001, momentum=0.03, affine=True, track_running_stats=True)
                    (act): SiLU(inplace=True)
                  )
                  (2): Conv(
                    (conv): Conv2d(384, 384, kernel_size=(1, 1), stride=(1, 1), bias=False)
                    (bn): BatchNorm2d(384, eps=0.001, momentum=0.03, affine=True, track_running_stats=True)
                    (act): SiLU(inplace=True)
                  )
                )
              )
              (H): light_ConvBlock(
                (conv_block): Sequential(
                  (0): Conv(
                    (conv): Conv2d(384, 384, kernel_size=(1, 1), stride=(1, 1), bias=False)
                    (bn): BatchNorm2d(384, eps=0.001, momentum=0.03, affine=True, track_running_stats=True)
                    (act): SiLU(inplace=True)
                  )
                  (1): Conv(
                    (conv): Conv2d(384, 384, kernel_size=(3, 3), stride=(1, 1), padding=(1, 1), groups=384, bias=False)
                    (bn): BatchNorm2d(384, eps=0.001, momentum=0.03, affine=True, track_running_stats=True)
                    (act): SiLU(inplace=True)
                  )
                  (2): Conv(
                    (conv): Conv2d(384, 384, kernel_size=(1, 1), stride=(1, 1), bias=False)
                    (bn): BatchNorm2d(384, eps=0.001, momentum=0.03, affine=True, track_running_stats=True)
                    (act): SiLU(inplace=True)
                  )
                )
              )
            )
            (out_project): Conv(
              (conv): Conv2d(768, 768, kernel_size=(1, 1), stride=(1, 1), bias=False)
              (bn): BatchNorm2d(768, eps=0.001, momentum=0.03, affine=True, track_running_stats=True)
              (act): SiLU(inplace=True)
            )
          )
          (norm1): BatchNorm2d(768, eps=0.001, momentum=0.03, affine=True, track_running_stats=True)
          (local_extractor): MG_ELAN(
            (main_conv): Conv(
              (conv): Conv2d(768, 384, kernel_size=(1, 1), stride=(1, 1), bias=False)
              (bn): BatchNorm2d(384, eps=0.001, momentum=0.03, affine=True, track_running_stats=True)
              (act): SiLU(inplace=True)
            )
            (short_conv): Conv(
              (conv): Conv2d(768, 384, kernel_size=(1, 1), stride=(1, 1), bias=False)
              (bn): BatchNorm2d(384, eps=0.001, momentum=0.03, affine=True, track_running_stats=True)
              (act): SiLU(inplace=True)
            )
            (blocks): ModuleList(
              (0-1): 2 x MoVE_GhostModule(
                (primary_conv): Conv(
                  (conv): Conv2d(384, 192, kernel_size=(3, 3), stride=(1, 1), padding=(1, 1), bias=False)
                  (bn): BatchNorm2d(192, eps=0.001, momentum=0.03, affine=True, track_running_stats=True)
                  (act): SiLU(inplace=True)
                )
                (cheap_operation): MoVE(
                  (experts): Conv(
                    (conv): Conv2d(192, 3072, kernel_size=(3, 3), stride=(1, 1), padding=(1, 1), groups=192, bias=False)
                    (bn): BatchNorm2d(3072, eps=0.001, momentum=0.03, affine=True, track_running_stats=True)
                    (act): SiLU(inplace=True)
                  )
                  (fusion): Conv(
                    (conv): Conv2d(3072, 192, kernel_size=(1, 1), stride=(1, 1), groups=16, bias=False)
                    (bn): BatchNorm2d(192, eps=0.001, momentum=0.03, affine=True, track_running_stats=True)
                    (act): SiLU(inplace=True)
                  )
                )
                (out_project): Conv(
                  (conv): Conv2d(384, 384, kernel_size=(1, 1), stride=(1, 1), bias=False)
                  (bn): BatchNorm2d(384, eps=0.001, momentum=0.03, affine=True, track_running_stats=True)
                  (act): SiLU(inplace=True)
                )
              )
            )
            (out_project): Conv(
              (conv): Conv2d(1536, 768, kernel_size=(1, 1), stride=(1, 1), bias=False)
              (bn): BatchNorm2d(768, eps=0.001, momentum=0.03, affine=True, track_running_stats=True)
              (act): SiLU(inplace=True)
            )
          )
          (norm2): BatchNorm2d(768, eps=0.001, momentum=0.03, affine=True, track_running_stats=True)
          (out_project): Identity()
        )
        (1): TransMoVE(
          (attn): DualAxisAggAttn(
            (main_conv): Conv(
              (conv): Conv2d(768, 384, kernel_size=(1, 1), stride=(1, 1), bias=False)
              (bn): BatchNorm2d(384, eps=0.001, momentum=0.03, affine=True, track_running_stats=True)
              (act): SiLU(inplace=True)
            )
            (short_conv): Conv(
              (conv): Conv2d(768, 384, kernel_size=(1, 1), stride=(1, 1), bias=False)
              (bn): BatchNorm2d(384, eps=0.001, momentum=0.03, affine=True, track_running_stats=True)
              (act): SiLU(inplace=True)
            )
            (qkv): ModuleDict(
              (W): Conv2d(384, 769, kernel_size=(1, 1), stride=(1, 1))
              (H): Conv2d(384, 769, kernel_size=(1, 1), stride=(1, 1))
            )
            (conv_fusion): ModuleDict(
              (W): light_ConvBlock(
                (conv_block): Sequential(
                  (0): Conv(
                    (conv): Conv2d(384, 384, kernel_size=(1, 1), stride=(1, 1), bias=False)
                    (bn): BatchNorm2d(384, eps=0.001, momentum=0.03, affine=True, track_running_stats=True)
                    (act): SiLU(inplace=True)
                  )
                  (1): Conv(
                    (conv): Conv2d(384, 384, kernel_size=(3, 3), stride=(1, 1), padding=(1, 1), groups=384, bias=False)
                    (bn): BatchNorm2d(384, eps=0.001, momentum=0.03, affine=True, track_running_stats=True)
                    (act): SiLU(inplace=True)
                  )
                  (2): Conv(
                    (conv): Conv2d(384, 384, kernel_size=(1, 1), stride=(1, 1), bias=False)
                    (bn): BatchNorm2d(384, eps=0.001, momentum=0.03, affine=True, track_running_stats=True)
                    (act): SiLU(inplace=True)
                  )
                )
              )
              (H): light_ConvBlock(
                (conv_block): Sequential(
                  (0): Conv(
                    (conv): Conv2d(384, 384, kernel_size=(1, 1), stride=(1, 1), bias=False)
                    (bn): BatchNorm2d(384, eps=0.001, momentum=0.03, affine=True, track_running_stats=True)
                    (act): SiLU(inplace=True)
                  )
                  (1): Conv(
                    (conv): Conv2d(384, 384, kernel_size=(3, 3), stride=(1, 1), padding=(1, 1), groups=384, bias=False)
                    (bn): BatchNorm2d(384, eps=0.001, momentum=0.03, affine=True, track_running_stats=True)
                    (act): SiLU(inplace=True)
                  )
                  (2): Conv(
                    (conv): Conv2d(384, 384, kernel_size=(1, 1), stride=(1, 1), bias=False)
                    (bn): BatchNorm2d(384, eps=0.001, momentum=0.03, affine=True, track_running_stats=True)
                    (act): SiLU(inplace=True)
                  )
                )
              )
            )
            (out_project): Conv(
              (conv): Conv2d(768, 768, kernel_size=(1, 1), stride=(1, 1), bias=False)
              (bn): BatchNorm2d(768, eps=0.001, momentum=0.03, affine=True, track_running_stats=True)
              (act): SiLU(inplace=True)
            )
          )
          (norm1): BatchNorm2d(768, eps=0.001, momentum=0.03, affine=True, track_running_stats=True)
          (local_extractor): MG_ELAN(
            (main_conv): Conv(
              (conv): Conv2d(768, 384, kernel_size=(1, 1), stride=(1, 1), bias=False)
              (bn): BatchNorm2d(384, eps=0.001, momentum=0.03, affine=True, track_running_stats=True)
              (act): SiLU(inplace=True)
            )
            (short_conv): Conv(
              (conv): Conv2d(768, 384, kernel_size=(1, 1), stride=(1, 1), bias=False)
              (bn): BatchNorm2d(384, eps=0.001, momentum=0.03, affine=True, track_running_stats=True)
              (act): SiLU(inplace=True)
            )
            (blocks): ModuleList(
              (0-1): 2 x MoVE_GhostModule(
                (primary_conv): Conv(
                  (conv): Conv2d(384, 192, kernel_size=(3, 3), stride=(1, 1), padding=(1, 1), bias=False)
                  (bn): BatchNorm2d(192, eps=0.001, momentum=0.03, affine=True, track_running_stats=True)
                  (act): SiLU(inplace=True)
                )
                (cheap_operation): MoVE(
                  (experts): Conv(
                    (conv): Conv2d(192, 3072, kernel_size=(3, 3), stride=(1, 1), padding=(1, 1), groups=192, bias=False)
                    (bn): BatchNorm2d(3072, eps=0.001, momentum=0.03, affine=True, track_running_stats=True)
                    (act): SiLU(inplace=True)
                  )
                  (fusion): Conv(
                    (conv): Conv2d(3072, 192, kernel_size=(1, 1), stride=(1, 1), groups=16, bias=False)
                    (bn): BatchNorm2d(192, eps=0.001, momentum=0.03, affine=True, track_running_stats=True)
                    (act): SiLU(inplace=True)
                  )
                )
                (out_project): Conv(
                  (conv): Conv2d(384, 384, kernel_size=(1, 1), stride=(1, 1), bias=False)
                  (bn): BatchNorm2d(384, eps=0.001, momentum=0.03, affine=True, track_running_stats=True)
                  (act): SiLU(inplace=True)
                )
              )
            )
            (out_project): Conv(
              (conv): Conv2d(1536, 768, kernel_size=(1, 1), stride=(1, 1), bias=False)
              (bn): BatchNorm2d(768, eps=0.001, momentum=0.03, affine=True, track_running_stats=True)
              (act): SiLU(inplace=True)
            )
          )
          (norm2): BatchNorm2d(768, eps=0.001, momentum=0.03, affine=True, track_running_stats=True)
          (out_project): Identity()
        )
      )
      (9): SPPF(
        (cv1): Conv(
          (conv): Conv2d(768, 384, kernel_size=(1, 1), stride=(1, 1), bias=False)
          (bn): BatchNorm2d(384, eps=0.001, momentum=0.03, affine=True, track_running_stats=True)
          (act): SiLU(inplace=True)
        )
        (cv2): Conv(
          (conv): Conv2d(1536, 768, kernel_size=(1, 1), stride=(1, 1), bias=False)
          (bn): BatchNorm2d(768, eps=0.001, momentum=0.03, affine=True, track_running_stats=True)
          (act): SiLU(inplace=True)
        )
        (m): MaxPool2d(kernel_size=5, stride=1, padding=2, dilation=1, ceil_mode=False)
      )
      (10): C2PSA(
        (cv1): Conv(
          (conv): Conv2d(768, 768, kernel_size=(1, 1), stride=(1, 1), bias=False)
          (bn): BatchNorm2d(768, eps=0.001, momentum=0.03, affine=True, track_running_stats=True)
          (act): SiLU(inplace=True)
        )
        (cv2): Conv(
          (conv): Conv2d(768, 768, kernel_size=(1, 1), stride=(1, 1), bias=False)
          (bn): BatchNorm2d(768, eps=0.001, momentum=0.03, affine=True, track_running_stats=True)
          (act): SiLU(inplace=True)
        )
        (m): Sequential(
          (0): PSABlock(
            (attn): Attention(
              (qkv): Conv(
                (conv): Conv2d(384, 768, kernel_size=(1, 1), stride=(1, 1), bias=False)
                (bn): BatchNorm2d(768, eps=0.001, momentum=0.03, affine=True, track_running_stats=True)
                (act): Identity()
              )
              (proj): Conv(
                (conv): Conv2d(384, 384, kernel_size=(1, 1), stride=(1, 1), bias=False)
                (bn): BatchNorm2d(384, eps=0.001, momentum=0.03, affine=True, track_running_stats=True)
                (act): Identity()
              )
              (pe): Conv(
                (conv): Conv2d(384, 384, kernel_size=(3, 3), stride=(1, 1), padding=(1, 1), groups=384, bias=False)
                (bn): BatchNorm2d(384, eps=0.001, momentum=0.03, affine=True, track_running_stats=True)
                (act): Identity()
              )
            )
            (ffn): Sequential(
              (0): Conv(
                (conv): Conv2d(384, 768, kernel_size=(1, 1), stride=(1, 1), bias=False)
                (bn): BatchNorm2d(768, eps=0.001, momentum=0.03, affine=True, track_running_stats=True)
                (act): SiLU(inplace=True)
              )
              (1): Conv(
                (conv): Conv2d(768, 384, kernel_size=(1, 1), stride=(1, 1), bias=False)
                (bn): BatchNorm2d(384, eps=0.001, momentum=0.03, affine=True, track_running_stats=True)
                (act): Identity()
              )
            )
          )
          (1): PSABlock(
            (attn): Attention(
              (qkv): Conv(
                (conv): Conv2d(384, 768, kernel_size=(1, 1), stride=(1, 1), bias=False)
                (bn): BatchNorm2d(768, eps=0.001, momentum=0.03, affine=True, track_running_stats=True)
                (act): Identity()
              )
              (proj): Conv(
                (conv): Conv2d(384, 384, kernel_size=(1, 1), stride=(1, 1), bias=False)
                (bn): BatchNorm2d(384, eps=0.001, momentum=0.03, affine=True, track_running_stats=True)
                (act): Identity()
              )
              (pe): Conv(
                (conv): Conv2d(384, 384, kernel_size=(3, 3), stride=(1, 1), padding=(1, 1), groups=384, bias=False)
                (bn): BatchNorm2d(384, eps=0.001, momentum=0.03, affine=True, track_running_stats=True)
                (act): Identity()
              )
            )
            (ffn): Sequential(
              (0): Conv(
                (conv): Conv2d(384, 768, kernel_size=(1, 1), stride=(1, 1), bias=False)
                (bn): BatchNorm2d(768, eps=0.001, momentum=0.03, affine=True, track_running_stats=True)
                (act): SiLU(inplace=True)
              )
              (1): Conv(
                (conv): Conv2d(768, 384, kernel_size=(1, 1), stride=(1, 1), bias=False)
                (bn): BatchNorm2d(384, eps=0.001, momentum=0.03, affine=True, track_running_stats=True)
                (act): Identity()
              )
            )
          )
        )
      )
      (11): Upsample(scale_factor=2.0, mode='nearest')
      (12): Concat()
      (13): C3k2(
        (cv1): Conv(
          (conv): Conv2d(1536, 768, kernel_size=(1, 1), stride=(1, 1), bias=False)
          (bn): BatchNorm2d(768, eps=0.001, momentum=0.03, affine=True, track_running_stats=True)
          (act): SiLU(inplace=True)
        )
        (cv2): Conv(
          (conv): Conv2d(1536, 768, kernel_size=(1, 1), stride=(1, 1), bias=False)
          (bn): BatchNorm2d(768, eps=0.001, momentum=0.03, affine=True, track_running_stats=True)
          (act): SiLU(inplace=True)
        )
        (m): ModuleList(
          (0-1): 2 x C3k(
            (cv1): Conv(
              (conv): Conv2d(384, 192, kernel_size=(1, 1), stride=(1, 1), bias=False)
              (bn): BatchNorm2d(192, eps=0.001, momentum=0.03, affine=True, track_running_stats=True)
              (act): SiLU(inplace=True)
            )
            (cv2): Conv(
              (conv): Conv2d(384, 192, kernel_size=(1, 1), stride=(1, 1), bias=False)
              (bn): BatchNorm2d(192, eps=0.001, momentum=0.03, affine=True, track_running_stats=True)
              (act): SiLU(inplace=True)
            )
            (cv3): Conv(
              (conv): Conv2d(384, 384, kernel_size=(1, 1), stride=(1, 1), bias=False)
              (bn): BatchNorm2d(384, eps=0.001, momentum=0.03, affine=True, track_running_stats=True)
              (act): SiLU(inplace=True)
            )
            (m): Sequential(
              (0): Bottleneck(
                (cv1): Conv(
                  (conv): Conv2d(192, 192, kernel_size=(3, 3), stride=(1, 1), padding=(1, 1), bias=False)
                  (bn): BatchNorm2d(192, eps=0.001, momentum=0.03, affine=True, track_running_stats=True)
                  (act): SiLU(inplace=True)
                )
                (cv2): Conv(
                  (conv): Conv2d(192, 192, kernel_size=(3, 3), stride=(1, 1), padding=(1, 1), bias=False)
                  (bn): BatchNorm2d(192, eps=0.001, momentum=0.03, affine=True, track_running_stats=True)
                  (act): SiLU(inplace=True)
                )
              )
              (1): Bottleneck(
                (cv1): Conv(
                  (conv): Conv2d(192, 192, kernel_size=(3, 3), stride=(1, 1), padding=(1, 1), bias=False)
                  (bn): BatchNorm2d(192, eps=0.001, momentum=0.03, affine=True, track_running_stats=True)
                  (act): SiLU(inplace=True)
                )
                (cv2): Conv(
                  (conv): Conv2d(192, 192, kernel_size=(3, 3), stride=(1, 1), padding=(1, 1), bias=False)
                  (bn): BatchNorm2d(192, eps=0.001, momentum=0.03, affine=True, track_running_stats=True)
                  (act): SiLU(inplace=True)
                )
              )
            )
          )
        )
      )
      (14): Upsample(scale_factor=2.0, mode='nearest')
      (15): Concat()
      (16): C3k2(
        (cv1): Conv(
          (conv): Conv2d(1152, 384, kernel_size=(1, 1), stride=(1, 1), bias=False)
          (bn): BatchNorm2d(384, eps=0.001, momentum=0.03, affine=True, track_running_stats=True)
          (act): SiLU(inplace=True)
        )
        (cv2): Conv(
          (conv): Conv2d(768, 384, kernel_size=(1, 1), stride=(1, 1), bias=False)
          (bn): BatchNorm2d(384, eps=0.001, momentum=0.03, affine=True, track_running_stats=True)
          (act): SiLU(inplace=True)
        )
        (m): ModuleList(
          (0-1): 2 x C3k(
            (cv1): Conv(
              (conv): Conv2d(192, 96, kernel_size=(1, 1), stride=(1, 1), bias=False)
              (bn): BatchNorm2d(96, eps=0.001, momentum=0.03, affine=True, track_running_stats=True)
              (act): SiLU(inplace=True)
            )
            (cv2): Conv(
              (conv): Conv2d(192, 96, kernel_size=(1, 1), stride=(1, 1), bias=False)
              (bn): BatchNorm2d(96, eps=0.001, momentum=0.03, affine=True, track_running_stats=True)
              (act): SiLU(inplace=True)
            )
            (cv3): Conv(
              (conv): Conv2d(192, 192, kernel_size=(1, 1), stride=(1, 1), bias=False)
              (bn): BatchNorm2d(192, eps=0.001, momentum=0.03, affine=True, track_running_stats=True)
              (act): SiLU(inplace=True)
            )
            (m): Sequential(
              (0): Bottleneck(
                (cv1): Conv(
                  (conv): Conv2d(96, 96, kernel_size=(3, 3), stride=(1, 1), padding=(1, 1), bias=False)
                  (bn): BatchNorm2d(96, eps=0.001, momentum=0.03, affine=True, track_running_stats=True)
                  (act): SiLU(inplace=True)
                )
                (cv2): Conv(
                  (conv): Conv2d(96, 96, kernel_size=(3, 3), stride=(1, 1), padding=(1, 1), bias=False)
                  (bn): BatchNorm2d(96, eps=0.001, momentum=0.03, affine=True, track_running_stats=True)
                  (act): SiLU(inplace=True)
                )
              )
              (1): Bottleneck(
                (cv1): Conv(
                  (conv): Conv2d(96, 96, kernel_size=(3, 3), stride=(1, 1), padding=(1, 1), bias=False)
                  (bn): BatchNorm2d(96, eps=0.001, momentum=0.03, affine=True, track_running_stats=True)
                  (act): SiLU(inplace=True)
                )
                (cv2): Conv(
                  (conv): Conv2d(96, 96, kernel_size=(3, 3), stride=(1, 1), padding=(1, 1), bias=False)
                  (bn): BatchNorm2d(96, eps=0.001, momentum=0.03, affine=True, track_running_stats=True)
                  (act): SiLU(inplace=True)
                )
              )
            )
          )
        )
      )
      (17): Conv(
        (conv): Conv2d(384, 384, kernel_size=(3, 3), stride=(2, 2), padding=(1, 1), bias=False)
        (bn): BatchNorm2d(384, eps=0.001, momentum=0.03, affine=True, track_running_stats=True)
        (act): SiLU(inplace=True)
      )
      (18): Concat()
      (19): C3k2(
        (cv1): Conv(
          (conv): Conv2d(1152, 768, kernel_size=(1, 1), stride=(1, 1), bias=False)
          (bn): BatchNorm2d(768, eps=0.001, momentum=0.03, affine=True, track_running_stats=True)
          (act): SiLU(inplace=True)
        )
        (cv2): Conv(
          (conv): Conv2d(1536, 768, kernel_size=(1, 1), stride=(1, 1), bias=False)
          (bn): BatchNorm2d(768, eps=0.001, momentum=0.03, affine=True, track_running_stats=True)
          (act): SiLU(inplace=True)
        )
        (m): ModuleList(
          (0-1): 2 x C3k(
            (cv1): Conv(
              (conv): Conv2d(384, 192, kernel_size=(1, 1), stride=(1, 1), bias=False)
              (bn): BatchNorm2d(192, eps=0.001, momentum=0.03, affine=True, track_running_stats=True)
              (act): SiLU(inplace=True)
            )
            (cv2): Conv(
              (conv): Conv2d(384, 192, kernel_size=(1, 1), stride=(1, 1), bias=False)
              (bn): BatchNorm2d(192, eps=0.001, momentum=0.03, affine=True, track_running_stats=True)
              (act): SiLU(inplace=True)
            )
            (cv3): Conv(
              (conv): Conv2d(384, 384, kernel_size=(1, 1), stride=(1, 1), bias=False)
              (bn): BatchNorm2d(384, eps=0.001, momentum=0.03, affine=True, track_running_stats=True)
              (act): SiLU(inplace=True)
            )
            (m): Sequential(
              (0): Bottleneck(
                (cv1): Conv(
                  (conv): Conv2d(192, 192, kernel_size=(3, 3), stride=(1, 1), padding=(1, 1), bias=False)
                  (bn): BatchNorm2d(192, eps=0.001, momentum=0.03, affine=True, track_running_stats=True)
                  (act): SiLU(inplace=True)
                )
                (cv2): Conv(
                  (conv): Conv2d(192, 192, kernel_size=(3, 3), stride=(1, 1), padding=(1, 1), bias=False)
                  (bn): BatchNorm2d(192, eps=0.001, momentum=0.03, affine=True, track_running_stats=True)
                  (act): SiLU(inplace=True)
                )
              )
              (1): Bottleneck(
                (cv1): Conv(
                  (conv): Conv2d(192, 192, kernel_size=(3, 3), stride=(1, 1), padding=(1, 1), bias=False)
                  (bn): BatchNorm2d(192, eps=0.001, momentum=0.03, affine=True, track_running_stats=True)
                  (act): SiLU(inplace=True)
                )
                (cv2): Conv(
                  (conv): Conv2d(192, 192, kernel_size=(3, 3), stride=(1, 1), padding=(1, 1), bias=False)
                  (bn): BatchNorm2d(192, eps=0.001, momentum=0.03, affine=True, track_running_stats=True)
                  (act): SiLU(inplace=True)
                )
              )
            )
          )
        )
      )
      (20): Conv(
        (conv): Conv2d(768, 768, kernel_size=(3, 3), stride=(2, 2), padding=(1, 1), bias=False)
        (bn): BatchNorm2d(768, eps=0.001, momentum=0.03, affine=True, track_running_stats=True)
        (act): SiLU(inplace=True)
      )
      (21): Concat()
      (22): C3k2(
        (cv1): Conv(
          (conv): Conv2d(1536, 768, kernel_size=(1, 1), stride=(1, 1), bias=False)
          (bn): BatchNorm2d(768, eps=0.001, momentum=0.03, affine=True, track_running_stats=True)
          (act): SiLU(inplace=True)
        )
        (cv2): Conv(
          (conv): Conv2d(1536, 768, kernel_size=(1, 1), stride=(1, 1), bias=False)
          (bn): BatchNorm2d(768, eps=0.001, momentum=0.03, affine=True, track_running_stats=True)
          (act): SiLU(inplace=True)
        )
        (m): ModuleList(
          (0-1): 2 x C3k(
            (cv1): Conv(
              (conv): Conv2d(384, 192, kernel_size=(1, 1), stride=(1, 1), bias=False)
              (bn): BatchNorm2d(192, eps=0.001, momentum=0.03, affine=True, track_running_stats=True)
              (act): SiLU(inplace=True)
            )
            (cv2): Conv(
              (conv): Conv2d(384, 192, kernel_size=(1, 1), stride=(1, 1), bias=False)
              (bn): BatchNorm2d(192, eps=0.001, momentum=0.03, affine=True, track_running_stats=True)
              (act): SiLU(inplace=True)
            )
            (cv3): Conv(
              (conv): Conv2d(384, 384, kernel_size=(1, 1), stride=(1, 1), bias=False)
              (bn): BatchNorm2d(384, eps=0.001, momentum=0.03, affine=True, track_running_stats=True)
              (act): SiLU(inplace=True)
            )
            (m): Sequential(
              (0): Bottleneck(
                (cv1): Conv(
                  (conv): Conv2d(192, 192, kernel_size=(3, 3), stride=(1, 1), padding=(1, 1), bias=False)
                  (bn): BatchNorm2d(192, eps=0.001, momentum=0.03, affine=True, track_running_stats=True)
                  (act): SiLU(inplace=True)
                )
                (cv2): Conv(
                  (conv): Conv2d(192, 192, kernel_size=(3, 3), stride=(1, 1), padding=(1, 1), bias=False)
                  (bn): BatchNorm2d(192, eps=0.001, momentum=0.03, affine=True, track_running_stats=True)
                  (act): SiLU(inplace=True)
                )
              )
              (1): Bottleneck(
                (cv1): Conv(
                  (conv): Conv2d(192, 192, kernel_size=(3, 3), stride=(1, 1), padding=(1, 1), bias=False)
                  (bn): BatchNorm2d(192, eps=0.001, momentum=0.03, affine=True, track_running_stats=True)
                  (act): SiLU(inplace=True)
                )
                (cv2): Conv(
                  (conv): Conv2d(192, 192, kernel_size=(3, 3), stride=(1, 1), padding=(1, 1), bias=False)
                  (bn): BatchNorm2d(192, eps=0.001, momentum=0.03, affine=True, track_running_stats=True)
                  (act): SiLU(inplace=True)
                )
              )
            )
          )
        )
      )
      (23): Detect(
        (cv2): ModuleList(
          (0): Sequential(
            (0): Conv(
              (conv): Conv2d(384, 96, kernel_size=(3, 3), stride=(1, 1), padding=(1, 1), bias=False)
              (bn): BatchNorm2d(96, eps=0.001, momentum=0.03, affine=True, track_running_stats=True)
              (act): SiLU(inplace=True)
            )
            (1): Conv(
              (conv): Conv2d(96, 96, kernel_size=(3, 3), stride=(1, 1), padding=(1, 1), bias=False)
              (bn): BatchNorm2d(96, eps=0.001, momentum=0.03, affine=True, track_running_stats=True)
              (act): SiLU(inplace=True)
            )
            (2): Conv2d(96, 64, kernel_size=(1, 1), stride=(1, 1))
          )
          (1-2): 2 x Sequential(
            (0): Conv(
              (conv): Conv2d(768, 96, kernel_size=(3, 3), stride=(1, 1), padding=(1, 1), bias=False)
              (bn): BatchNorm2d(96, eps=0.001, momentum=0.03, affine=True, track_running_stats=True)
              (act): SiLU(inplace=True)
            )
            (1): Conv(
              (conv): Conv2d(96, 96, kernel_size=(3, 3), stride=(1, 1), padding=(1, 1), bias=False)
              (bn): BatchNorm2d(96, eps=0.001, momentum=0.03, affine=True, track_running_stats=True)
              (act): SiLU(inplace=True)
            )
            (2): Conv2d(96, 64, kernel_size=(1, 1), stride=(1, 1))
          )
        )
        (cv3): ModuleList(
          (0): Sequential(
            (0): Sequential(
              (0): DWConv(
                (conv): Conv2d(384, 384, kernel_size=(3, 3), stride=(1, 1), padding=(1, 1), groups=384, bias=False)
                (bn): BatchNorm2d(384, eps=0.001, momentum=0.03, affine=True, track_running_stats=True)
                (act): SiLU(inplace=True)
              )
              (1): Conv(
                (conv): Conv2d(384, 384, kernel_size=(1, 1), stride=(1, 1), bias=False)
                (bn): BatchNorm2d(384, eps=0.001, momentum=0.03, affine=True, track_running_stats=True)
                (act): SiLU(inplace=True)
              )
            )
            (1): Sequential(
              (0): DWConv(
                (conv): Conv2d(384, 384, kernel_size=(3, 3), stride=(1, 1), padding=(1, 1), groups=384, bias=False)
                (bn): BatchNorm2d(384, eps=0.001, momentum=0.03, affine=True, track_running_stats=True)
                (act): SiLU(inplace=True)
              )
              (1): Conv(
                (conv): Conv2d(384, 384, kernel_size=(1, 1), stride=(1, 1), bias=False)
                (bn): BatchNorm2d(384, eps=0.001, momentum=0.03, affine=True, track_running_stats=True)
                (act): SiLU(inplace=True)
              )
            )
            (2): Conv2d(384, 80, kernel_size=(1, 1), stride=(1, 1))
          )
          (1-2): 2 x Sequential(
            (0): Sequential(
              (0): DWConv(
                (conv): Conv2d(768, 768, kernel_size=(3, 3), stride=(1, 1), padding=(1, 1), groups=768, bias=False)
                (bn): BatchNorm2d(768, eps=0.001, momentum=0.03, affine=True, track_running_stats=True)
                (act): SiLU(inplace=True)
              )
              (1): Conv(
                (conv): Conv2d(768, 384, kernel_size=(1, 1), stride=(1, 1), bias=False)
                (bn): BatchNorm2d(384, eps=0.001, momentum=0.03, affine=True, track_running_stats=True)
                (act): SiLU(inplace=True)
              )
            )
            (1): Sequential(
              (0): DWConv(
                (conv): Conv2d(384, 384, kernel_size=(3, 3), stride=(1, 1), padding=(1, 1), groups=384, bias=False)
                (bn): BatchNorm2d(384, eps=0.001, momentum=0.03, affine=True, track_running_stats=True)
                (act): SiLU(inplace=True)
              )
              (1): Conv(
                (conv): Conv2d(384, 384, kernel_size=(1, 1), stride=(1, 1), bias=False)
                (bn): BatchNorm2d(384, eps=0.001, momentum=0.03, affine=True, track_running_stats=True)
                (act): SiLU(inplace=True)
              )
            )
            (2): Conv2d(384, 80, kernel_size=(1, 1), stride=(1, 1))
          )
        )
        (dfl): DFL(
          (conv): Conv2d(16, 1, kernel_size=(1, 1), stride=(1, 1), bias=False)
        )
      )
    )
  )
)
YOLO113x summary: 596 layers, 61,904,816 parameters, 0 gradients, 236.7 GFLOPs
Ultralytics 8.3.81  Python-3.11.10 torch-2.3.1 CUDA:0 (NVIDIA RTX A5000, 24123MiB)
YOLO113x summary: 491 layers, 61,869,776 parameters, 0 gradients, 236.1 GFLOPs
                   all       5000      36335      0.736      0.662      0.718      0.551
…
